…
+-----------------------------------------------------------------------------------------+
| Processes:                                                                              |
|  GPU   GI   CI        PID   Type   Process name                              GPU Memory |
|        ID   ID                                                               Usage      |
|=========================================================================================|
+-----------------------------------------------------------------------------------------+

====================================================================================================
44720512 parameters
GPT(
  (embed): Embedding(50257, 384)
  (blocks): ModuleList(
    (0-3): 4 x Block(
      (attn): CausalSelfAttention(
        (Wq): Linear(in_features=384, out_features=384, bias=False)
        (Wk): Linear(in_features=384, out_features=384, bias=False)
        (Wv): Linear(in_features=384, out_features=384, bias=False)
        (s_qk): Scale()
        (rotary): Rotary()
        (Wo): Linear(in_features=384, out_features=384, bias=False)
      )
      (mlp): MLP(
        (Wup): Linear(in_features=384, out_features=768, bias=False)
        (Wgate): Linear(in_features=384, out_features=768, bias=False)
        (Wdown): Linear(in_features=768, out_features=384, bias=False)
        (s_u): Scale()
        (s_v): Scale()
      )
      (alpha_A): MoScale(
        (w): Linear(in_features=384, out_features=32, bias=True)
      )
      (alpha_M): MoScale(
        (w): Linear(in_features=384, out_features=32, bias=True)
      )
    )
  )
  (lm_head): Linear(in_features=384, out_features=50304, bias=True)
  (s_z): Scale()
)
Initial GPU memory: 178 MB
After warmup GPU memory: 178 MB
Validating on 262144 tokens (16 steps with 16384 batch size)
Total tokens across 1 shard(s): 100,000,000
Tokens needed for 200 iterations: 3,276,800
Training will use approximately 0.03 epochs over the data
step:0/200 val_loss:83.1763 train_time:0ms step_avg:0.15ms
Total tokens across 1 shard(s): 100,000,000
…
